…
Input Shapes:
  X_train: (10609, 3, 24, 11) (samples, sites, seq_len, features)
  X_test:  (2653, 3, 24, 11)
  y_train: (10609, 3) (samples, sites)
  y_test:  (2653, 3)

[Building] Spatio-Temporal Transformer...
  ✓ Model built
Model: "model"
_________________________________________________________________
 Layer (type)                Output Shape              Param #   
=================================================================
 input_1 (InputLayer)        [(None, 3, 24, 11)]       0         
                                                                 
 dense (Dense)               (None, 3, 24, 64)         768       
                                                                 
 spatial_attention (SpatialA  (None, 3, 24, 64)        16768     
 ttention)                                                       
                                                                 
 temporal_attention (Tempora  (None, 3, 24, 64)        16768     
 lAttention)                                                     
                                                                 
 feed_forward_network (FeedF  (None, 3, 24, 64)        33216     
 orwardNetwork)                                                  
                                                                 
 spatial_attention_1 (Spatia  (None, 3, 24, 64)        16768     
 lAttention)                                                     
                                                                 
 temporal_attention_1 (Tempo  (None, 3, 24, 64)        16768     
 ralAttention)                                                   
                                                                 
 feed_forward_network_1 (Fee  (None, 3, 24, 64)        33216     
 dForwardNetwork)                                                
                                                                 
 spatial_attention_2 (Spatia  (None, 3, 24, 64)        16768     
 lAttention)                                                     
                                                                 
 temporal_attention_2 (Tempo  (None, 3, 24, 64)        16768     
 ralAttention)                                                   
                                                                 
 feed_forward_network_2 (Fee  (None, 3, 24, 64)        33216     
 dForwardNetwork)                                                
                                                                 
 global_average_pooling2d (G  (None, 64)               0         
 lobalAveragePooling2D)                                          
                                                                 
 flatten (Flatten)           (None, 64)                0         
                                                                 
 dense_7 (Dense)             (None, 128)               8320      
                                                                 
 dropout_9 (Dropout)         (None, 128)               0         
                                                                 
 dense_8 (Dense)             (None, 64)                8256      
                                                                 
 dropout_10 (Dropout)        (None, 64)                0         
                                                                 
 dense_9 (Dense)             (None, 3)                 195       
                                                                 
=================================================================
Total params: 217,795
Trainable params: 217,795
Non-trainable params: 0
_________________________________________________________________

[Training] Spatio-Temporal Transformer...
Epoch 1/100
  1/266 [..............................] - ETA: 56:55 - loss: 0.15
…
