…
============================================================
LSTM MODEL FOR MULTI-SITE GHI PREDICTION
============================================================

Input shapes:
  X_train: (3394, 6, 24, 11) (samples, sites, seq_len, features)
  X_test: (849, 6, 24, 11)
  y_train: (3394, 6) (samples, sites)
  y_test: (849, 6)

[LSTM] Building model...
Model: "sequential"
_________________________________________________________________
 Layer (type)                Output Shape              Param #   
=================================================================
 reshape (Reshape)           (None, 24, 66)            0         
                                                                 
 lstm (LSTM)                 (None, 24, 128)           99840     
                                                                 
 batch_normalization (BatchN  (None, 24, 128)          512       
 ormalization)                                                   
                                                                 
 dropout (Dropout)           (None, 24, 128)           0         
                                                                 
 lstm_1 (LSTM)               (None, 24, 64)            49408     
                                                                 
 batch_normalization_1 (Batc  (None, 24, 64)           256       
 hNormalization)                                                 
                                                                 
 dropout_1 (Dropout)         (None, 24, 64)            0         
                                                                 
 lstm_2 (LSTM)               (None, 32)                12416     
                                                                 
 batch_normalization_2 (Batc  (None, 32)               128       
 hNormalization)                                                 
                                                                 
 dropout_2 (Dropout)         (None, 32)                0         
                                                                 
 dense (Dense)               (None, 64)                2112      
                                                                 
 dropout_3 (Dropout)         (None, 64)                0         
                                                                 
 dense_1 (Dense)             (None, 32)                2080      
                                                                 
 dense_2 (Dense)             (None, 6)                 198       
                                                                 
=================================================================
Total params: 166,950
Trainable params: 166,502
Non-trainable params: 448
_________________________________________________________________
None

[LSTM] Training model (epochs=50, batch_size=32)...
Epoch 1/50
 1/85 [..............................] - ETA: 7:09
…
======================================================================
GRU (GATED RECURRENT UNIT) MODEL FOR SOLAR IRRADIANCE PREDICTION
======================================================================

Input Shapes:
  X_train: (3394, 6, 24, 11)
  X_test:  (849, 6, 24, 11)
  y_train: (3394, 6)
  y_test:  (849, 6)

[Building] GRU Model...
  ✓ Model built
Model: "sequential_1"
_________________________________________________________________
 Layer (type)                Output Shape              Param #   
=================================================================
 reshape_1 (Reshape)         (None, 24, 66)            0         
                                                                 
 gru (GRU)                   (None, 24, 128)           75264     
                                                                 
 batch_normalization_3 (Batc  (None, 24, 128)          512       
 hNormalization)                                                 
                                                                 
 dropout_4 (Dropout)         (None, 24, 128)           0         
                                                                 
 gru_1 (GRU)                 (None, 24, 64)            37248     
                                                                 
 batch_normalization_4 (Batc  (None, 24, 64)           256       
 hNormalization)                                                 
                                                                 
 dropout_5 (Dropout)         (None, 24, 64)            0         
                                                                 
 gru_2 (GRU)                 (None, 32)                9408      
                                                                 
 batch_normalization_5 (Batc  (None, 32)               128       
 hNormalization)                                                 
                                                                 
 dropout_6 (Dropout)         (None, 32)                0         
                                                                 
 dense_3 (Dense)             (None, 64)                2112      
                                                                 
 dropout_7 (Dropout)         (None, 64)                0         
                                                                 
 dense_4 (Dense)             (None, 32)                2080      
                                                                 
 dense_5 (Dense)             (None, 6)                 198       
                                                                 
=================================================================
Total params: 127,206
Trainable params: 126,758
Non-trainable params: 448
_________________________________________________________________

[Training] GRU Model...
Epoch 1/50
 1/85 [..............................] - ETA: 8:12 - loss: 0.1230 - mae: 0.3055 - m
…
======================================================================

Input Shapes:
  X_train: (3394, 6, 24, 11) (samples, sites, seq_len, features)
  X_test:  (849, 6, 24, 11)
  y_train: (3394, 6) (samples, sites)
  y_test:  (849, 6)

[Building] Spatio-Temporal Transformer...
  ✓ Model built
Model: "model"
_________________________________________________________________
 Layer (type)                Output Shape              Param #   
=================================================================
 input_1 (InputLayer)        [(None, 6, 24, 11)]       0         
                                                                 
 dense_6 (Dense)             (None, 6, 24, 64)         768       
                                                                 
 spatial_attention (SpatialA  (None, 6, 24, 64)        16768     
 ttention)                                                       
                                                                 
 temporal_attention (Tempora  (None, 6, 24, 64)        16768     
 lAttention)                                                     
                                                                 
 feed_forward_network (FeedF  (None, 6, 24, 64)        33216     
 orwardNetwork)                                                  
                                                                 
 spatial_attention_1 (Spatia  (None, 6, 24, 64)        16768     
 lAttention)                                                     
                                                                 
 temporal_attention_1 (Tempo  (None, 6, 24, 64)        16768     
 ralAttention)                                                   
                                                                 
 feed_forward_network_1 (Fee  (None, 6, 24, 64)        33216     
 dForwardNetwork)                                                
                                                                 
 spatial_attention_2 (Spatia  (None, 6, 24, 64)        16768     
 lAttention)                                                     
                                                                 
 temporal_attention_2 (Tempo  (None, 6, 24, 64)        16768     
 ralAttention)                                                   
                                                                 
 feed_forward_network_2 (Fee  (None, 6, 24, 64)        33216     
 dForwardNetwork)                                                
                                                                 
 global_average_pooling2d (G  (None, 64)               0         
 lobalAveragePooling2D)                                          
                                                                 
 flatten (Flatten)           (None, 64)                0         
                                                                 
 dense_13 (Dense)            (None, 128)               8320      
                                                                 
 dropout_17 (Dropout)        (None, 128)               0         
                                                                 
 dense_14 (Dense)            (None, 64)                8256      
                                                                 
 dropout_18 (Dropout)        (None, 64)                0         
                                                                 
 dense_15 (Dense)            (None, 6)                 390       
                                                                 
=================================================================
Total params: 217,990
Trainable params: 217,990
Non-trainable params: 0
_________________________________________________________________

[Training] Spatio-Temporal Transformer...
Epoch 1/50
 1/85 [..............................] - ETA: 12:54 - loss: 0.1313 
…
